model/IDS_DL-model.pth (torch, 59450 bytes, 5 tensors)

weight f4 [128, 42]
00000000: aa4f 783e 97ae 6d3c 3fb9 073c c96f d53d
00000010: 2a80 82bc fda8 2b3e 01b1 36be 8553 d5bd
00000020: 8012 cf3c fde3 983e c4d9 d83d 731e e0bd
00000030: 1d48 22be cef9 d83e f003 4c3d 82fa 173d
00000040: 155d acbd 91bc d43d 279c 5dbd 7c20 adbe
00000050: 8a1e 76be a936 033e 7aaf 2ebe 1762 3cbd
00000060: b35a c93d 2786 0abe 2995 a13e 5ee5 4b3f
00000070: 6695 a53e f5f3 05be da4c 373f 65a2 81be
00000080: 172b 293e 3bb4 863e a6ea a53d 017b 90bd
00000090: efa4 66bd 72ed a7bd b4e6 33bd ad3d 563e
000000a0: f57a 27be 368a 67bd bb42 ecbd ca82 4b3c
000000b0: f8d9 53be 87e7 9c3d 3406 16bf de5c bbbe
000000c0: 352a 2dbe 2946 a2bc b421 113e 9f8d 793e
000000d0: f630 0e3e b7aa 033d 3ca8 b8bd dcc8 6abf
000000e0: 173b 3fbf 507a 06be 43f9 09bb 7984 223e
000000f0: 3f7d febd 0e34 81be 9cda 31bc d62e 4e3d
00000100: d768 1cbe 2232 d6be 9453 14bf 7441 b3bd
00000110: ea46 9f3c 5761 043f 18f2 ed3e 4124 5d3e
00000120: e527 33bc 3cb5 60be 2da1 603e 2994 85be
00000130: 61b7 9b3e f339 8cbe 77dc 78bd 42b5 56be
00000140: 8755 5a3c 4cca 6d3e 4609 5fbd 1d7a 9bbe
00000150: b6d7 1b3e 2b0a 6fbd dbdd 21be 786e 613e
00000160: f53e e2be 3a36 d0be ab74 fcbe 92c0 55be
00000170: b53d b63e 561f 51be ba36 b1be c901 0ebf
00000180: dbb2 3abe 1e0e 01be 2124 37be 1f8e 123e
00000190: e4ee cabc 181f d2be c4c6 72be 9851 4abe
000001a0: 1e8b 6dbe d649 05be f414 94be 453d f9bd
000001b0: f92a a2be 425e 72be a60f 2fbf 6209 17be
000001c0: 4bd7 c8be e6d2 9bbe fc69 0bbe fe2e 9cbe
000001d0: 7b41 7fbe 8c57 063f 4343 eebd 13a6 1fbf
000001e0: 6fa9 60be e741 c3be d576 ffbd 075c 253e
000001f0: 30f1 f4be 1c78 e73c 2754 d739 c9f9 0cbd
00000200: f545 ddbd 83ed 82bd 7a05 1ebe 57e9 593e
00000210: 7257 1bbf f36c 0b3e 75ec e4bc 14a7 abbe
00000220: f500 603e 93f7 8bbe 16a1 303d 9b39 3a3e
00000230: f4e7 d13d cc74 533e 5242 593e a895 e43d
00000240: 9d06 b43d 461f 963e 2b23 8ebe 6991 e63d
00000250: 22bc bd3d 7abc 003f b188 4a3e 7444 eb3e
00000260: df3b 72bf 511e 163f 1579 d9be 2e81 8b3d
00000270: c4ec 133f 2b90 2fbf 0408 173f 9a06 1cbe
00000280: e363 523e 5c07 f33e 4161 c33e 5f65 053f
00000290: 3402 723e 3728 a8be 64a7 173e 2147 b53d
000002a0: b1c7 193e daa6 88bc db03 bebd 0754 b4bd
000002b0: a6cb 92bd 779a 273e c3df b5be 9890 653e
000002c0: 8e54 84bd 40a3 d8bc ec0b 9fbe 15bb 8e3d
000002d0: 4033 1f3e 1a0a 963c d4b0 2d3e 21ab 093e
000002e0: 270a 0a3e fac5 85bc b67c 1dbe 3fab 993d
000002f0: 5ce1 1f3e 496a 6d3d 0646 b6bc ad7a 013e
00000300: b2c8 453e 0ce5 7cbd 37d8 9b3e 8e1e 02bf
00000310: 35a0 373d 2c47 e8bc 5566 bc3e 9701 913e
00000320: 16bf a5bc 2260 413d ac8a a0be 0f9b 4f3e
00000330: 5178 c83d 7e24 923d 88c7 33bd d0a0 2cbd
00000340: 0393 9f3e 02c3 28bd 505c 29bd 5e32 e8bd
00000350: 097a 8fbd 5ad1 44bd 0e77 efbd ea7f 41bd
00000360: ce85 d13d ca75 f03d 6bb3 09be 8ce3 18bd
00000370: 2289 07bd 0bfc 1d3e b470 173d 58f4 dcbd
00000380: 18e2 0c3d 3cb2 123d 805e 66bb 4501 8abd
00000390: 321b d8bd b849 003d e26c 8abd fa62 c23d
000003a0: 306d 713d 1adf d33d 2869 06be 4ef8 9dbd
000003b0: f026 dbbd 728a c93d 96b4 07be 6499 363d
000003c0: c8a4 903c 7691 efbd b24f ae3d 3047 e9bc
000003d0: ff00 febd dd09 0bbe b2da 09be 0037 07ba
000003e0: c0ff 283d a806 ca3c 0280 f6bd ebda 023e
000003f0: b3f6 07be d32d 1fbe 00b0 dc3b b5ad d3bd
0.2424914 0.0145069575 0.008283912 0.10421712 -0.015930254 0.16763683 -0.17840959 -0.10416321
0.025277376 0.2986144 0.105884105 -0.10943308 -0.15847822 0.42378086 0.049808443 0.037104137
-0.084161915 0.10387529 -0.054103997 -0.33813846 -0.24035087 0.1281382 -0.17059126 -0.045991983
0.09831753 -0.13527738 0.31559113 0.7964686 0.32340544 -0.13081343 0.7160164 -0.2531921
0.16520344 0.2630938 0.08101396 -0.07054711 -0.056309637 -0.08199586 -0.043921188 0.20921965
-0.16355498 -0.056528293 -0.11536165 0.012421319 -0.20688617 0.07661348 -0.58603215 -0.3659429
-0.16910632 -0.019808846 0.14173013 0.2437043 0.13885865 0.03214523 -0.09016463 -0.9171274
-0.7469954 -0.13132596 -0.0021053113 0.15870847 -0.124262325 -0.25235027 -0.010855343 0.050337635
-0.15274368 -0.41835123 -0.5794003 -0.087527186 0.019442994 0.5171103 0.46473765 0.21595861
-0.010934805 -0.21944135 0.21936484 -0.260896 0.30413345 -0.27387962 -0.060757127 -0.20967582
0.013326055 0.23221701 -0.054452203 -0.30366603 0.15219006 -0.058359306 -0.15807287 0.22014797
-0.44188657 -0.40666372 -0.4930776 -0.20874241 0.35593954 -0.2042211 -0.34612066 -0.55471474
-0.1823229 -0.12603042 -0.17884876 0.14312027 -0.024772115 -0.41039348 -0.23708636 -0.19757688
-0.231976 -0.13016447 -0.28922236 -0.12169889 -0.3167341 -0.23668769 -0.6838325 -0.14749673
-0.39226755 -0.3043434 -0.13614649 -0.30504602 -0.24927323 0.52477336 -0.11633923 -0.62362784
-0.21939634 -0.38136217 -0.12473837 0.16148387 -0.4784026 0.028255515 0.00041070694 -0.0344179
-0.10804359 -0.06392958 -0.15431777 0.21280418 -0.60680306 0.1361578 -0.027944783 -0.33525908
0.21875365 -0.27337322 0.043122374 0.18186037 0.1024932 0.20650023 0.21216705 0.11161357
0.08790324 0.29320735 -0.27761206 0.112582035 0.09264399 0.5028759 0.19778706 0.45950663
-0.94622606 0.5864001 -0.4247519 0.068117484 0.5778315 -0.6857936 0.58996606 -0.15236893
0.20545916 0.47466552 0.38160136 0.52107805 0.23633653 -0.32843181 0.14809948 0.088514574
0.15017582 -0.016681124 -0.09278079 -0.088050894 -0.07167749 0.16367517 -0.3552228 0.2241844
-0.0646144 -0.026445031 -0.31063783 0.06969277 0.15546894 0.018315364 0.16961986 0.13444187
0.13480435 -0.016329754 -0.15379605 0.07503366 0.15613312 0.05796269 -0.022250187 0.12644453
0.1931484 -0.061741874 0.30438396 -0.5082787 0.04483052 -0.02835425 0.36796823 0.28321525
-0.020232718 0.04721082 -0.31355798 0.20273994 0.097885735 0.071358666 -0.04389146 -0.04214555
0.3116685 -0.0412016 -0.0413478 -0.11337732 -0.07005698 -0.048051216 -0.1169263 -0.04724113
0.10230599 0.117412165 -0.13447349 -0.03732638 -0.033089764 0.15428178 0.036972716 -0.10788792
0.034395307 0.03581451 -0.0035151541 -0.067385234 -0.10552062 0.031320304 -0.06759049 0.094915345
0.05894202 0.103452876 -0.13126051 -0.07713376 -0.10700786 0.098408595 -0.13252482 0.04457988
0.017656699 -0.11697666 0.085112944 -0.028476328 -0.12402534 -0.13577981 -0.13462332 -0.0005158037
0.041259527 0.024661377 -0.12036134 0.12778823 -0.13277702 -0.15544824 0.006734848 -0.10335866

bias f4 [128]
00000000: 113f 2abe f9f4 6f3e f9d7 943e 1be5 093e
00000010: 9ef6 0dbd e02d 40bc 17f9 0ebe 5954 483e
00000020: 1ab5 b63d 5deb 203d 748b cb3c bacd d23e
00000030: e763 023e 7a68 ac3e 8739 e8bc 238d fbbd
00000040: d20e 983c 3290 6b3e 179e 173e b3b6 92bb
00000050: 04d2 9a3d 75a5 333e 2c44 17be 3cd2 1abe
00000060: 083b 1e3e e25a 0e3e d5be 573d 2a20 253e
00000070: 3464 bebd c8df 293d 73e9 c5bd f4e1 c6bc
00000080: ba13 a53e 3403 a1bd 74fd 14bd 79da 78be
00000090: 8dc3 31be 2feb 073e 2827 b8bc 4965 17bd
000000a0: 800b 163e 8b83 333e 4352 86be 76bc 473d
000000b0: cd3f dcbd 3e74 4fbd 8ac0 303e a27f 77bd
000000c0: f776 2fbe 3a55 423e c202 84bd 9f93 c8bd
000000d0: e85c 37be 2031 2e3e c59a bbbc aa73 3e3d
000000e0: 9921 0e3d 7bac c7bd 0d59 8dbd d234 79be
000000f0: 7f88 923c ab1c 0cbe f100 88be ef1e b53e
00000100: 5c75 c1bc a384 2e3e 811d 063e fb0a 3d3e
00000110: 909b 863d c7d9 d63e d3b1 9fbd 5dea a83c
00000120: 014d 85bd c934 15be d59f 603d 1734 45bd
00000130: 7bc7 47be 4b97 79bd c1f7 5a3e 6406 f2bd
00000140: fa60 3dbe fb53 19be fbcf 79be e9fb 71be
00000150: df10 253e 3311 aa3a 2623 123d ee8c c23c
00000160: ecb1 b73d dd6f d73d 552a 6cbe 9c39 aabd
00000170: f9a8 32be 7d1d 2ebe d51b 623e b73b 9cbe
00000180: 307c d5bd 3dd0 50bd 482e f0bd 5966 363d
00000190: 95ea b33d ae83 18bd 0c48 46ba e3e0 9a3d
000001a0: 6b6c 563c 4a5a a8bd 74eb 853e 4d70 4ebd
000001b0: 8f0b 3fbe ca19 13be c928 0d3e 4047 44be
000001c0: 30e7 c23e 4151 8bbd 17ca 853c 4db8 d43d
000001d0: f406 07be 07ca 9bbd a7a5 853e ae6b f23d
000001e0: debd 893d a01e 9bbd d864 22bd 7a17 b83c
000001f0: 61f5 853d 0ea1 47be e9ca 23be 1f46 a93c
-0.1662562 0.23433293 0.29071024 0.13466303 -0.03465902 -0.011729687 -0.13962208 0.19563426
0.08921261 0.03928696 0.02484677 0.41172582 0.12733422 0.3367346 -0.028347744 -0.12282779
0.018561754 0.23004225 0.148064 -0.004477346 0.075595886 0.17543586 -0.147721 -0.1511926
0.15452206 0.13901857 0.052672226 0.16125551 -0.09296456 0.04147318 -0.096636675 -0.024277665
0.32241613 -0.07861939 -0.036374524 -0.2430209 -0.17359753 0.13273309 -0.022479609 -0.036961827
0.14652824 0.17530648 -0.26234636 0.048763715 -0.107543565 -0.050647967 0.17260948 -0.060424455
-0.17135225 0.18977824 -0.064458385 -0.097937815 -0.17906535 0.17010927 -0.022900948 0.046497025
0.03470001 -0.09749695 -0.06901751 -0.24336556 0.017887352 -0.13682811 -0.26563218 0.35375163
-0.023615532 0.17042784 0.13097192 0.1846122 0.0657264 0.41963026 -0.07797589 0.020619566
-0.06508828 -0.14570917 0.054839928 -0.04814538 -0.1950969 -0.0609353 0.21383573 -0.11817625
-0.18494025 -0.14973442 -0.24395745 -0.23631252 0.16119717 0.0012975096 0.03567805 0.023748841
0.08969483 0.10519383 -0.23063023 -0.08311769 -0.1744727 -0.17003436 0.2208093 -0.3051431
-0.104240775 -0.05097984 -0.117275774 0.0445312 0.08784977 -0.037234955 -0.00075638364 0.07562425
0.013087372 -0.08220346 0.261562 -0.050400067 -0.18656753 -0.14365306 0.1378509 -0.19167805
0.38067007 -0.06802607 0.016331716 0.10386715 -0.13186246 -0.07606893 0.26102945 0.118369445
0.067256674 -0.07574201 -0.039646953 0.022472132 0.06540943 -0.19495031 -0.15995373 0.02066332

weight f4 [64, 128]
00000000: e0c8 36bd e991 a83d 0b7e 2abd ff8b debd
00000010: e40d b4bb 5069 8ebd 3923 9c3d 081a 653d
00000020: c1a9 32bd adda fbbc dff9 d73c 28fe 10bd
00000030: 516e c73b d990 933c a38c 283d 05df e8bc
00000040: 6888 853c c02e 5f3d 8533 44bc 772a 51bc
00000050: 3822 32be ee4f b5bd ca06 963d ec27 c0bd
00000060: 2a49 003c 2d83 c93d b4e3 bebc a2d2 cfbd
00000070: 0e55 e7bd 4d55 9abd 7643 8e3d 4abf a8bd
00000080: 91d8 273d 9c76 86bd 7749 a93c 12c8 6fbc
00000090: 7815 f1bd 1765 9d3d 2d5c 9abd 0fb8 97bd
000000a0: e9f6 a43d 8a8f 90bd ca29 3a3d 164c a8bc
000000b0: 93ba 93bd 318c 35bb 24fa 00bd b793 53bd
000000c0: e98a 91bd 959e b6bd 77ed b23c d18c 70bd
000000d0: 06c0 0b3d 8bf6 58bc c7d4 acbd c888 7b3d
000000e0: 8928 bdbd b722 bfbd 6b55 35bc 8add c0bd
000000f0: cfd1 a3bd d377 23be c0c0 5dbc a353 0ebb
00000100: 5bb8 3f3d 61a9 67bd 4edf ab3b 130d 3dbd
00000110: 75d8 44bc 94da d8bb 663a 3fbc 52a9 80bd
00000120: 3988 733c b879 89bd 832f 1d3c 13db 1dbd
00000130: f719 293c 2886 c1bd ca40 2c3d a758 9fbc
00000140: bc95 49bd 4b05 abbd 0cad 91bd 2fb4 aabd
00000150: aa6e 7a3d 665e b2bd 00f4 c4bd 1834 edbd
00000160: e469 4d3d 7a8e 693d 1240 dabd fb21 23bd
00000170: c85b 9abc 82f8 91bd 3fb6 56bc dbcc c73c
00000180: 3934 b1bd 0529 85bd d856 ca3c 27fb aebd
00000190: 3890 0a3c a1f0 c5bd 3f0a 7fbd 63b6 82bd
000001a0: c54a 65bd e428 fabd 0546 bd3c c740 eabc
000001b0: 95ab 983c 2a94 9ebd f5bd 9cbb 3a5f b6bd
000001c0: c886 2b3d a3a2 b33d fbaa 8e3b 5c18 5dbd
000001d0: 38eb 16bc 0d8d 88bd d0db a13d 2f59 86bc
000001e0: 788e f2bd d693 ebbc 6d4d 9b3c 8087 ccbb
000001f0: 6aae 163d a17c debc dc6e 5cbd f720 7ebd
00000200: d592 983c c4f8 d63d aefa 27bf b047 b8bd
00000210: dfe0 6abd cc9b a23c acee 733d 3114 5f3d
00000220: b4e6 8bbd caf1 543d 3da7 c53c 30da 31bf
00000230: f892 753b 78b7 22bf b836 873d b89c 84bd
00000240: 1809 a13a 2068 bdbd 932a dc3e 418e f63c
00000250: 1c1f d4bc ef68 34bd 512e 51be ba94 1c3c
00000260: 7067 333f 9ef6 11bf 6dce 00bf bd31 843d
00000270: 68a6 683d a1ce 333e bcc9 e33d 69ec d93b
00000280: 7086 333e e406 a5bd 7e5c 933d d213 403d
00000290: c20d 3039 65f6 81bd 7e53 6c3d c8be 03be
000002a0: 5904 8ebd 3628 25bf 87b1 26bc 8f01 0c3d
000002b0: 8012 66b5 8026 efbd 422b 05bc d1d4 44be
000002c0: d778 333d a541 3d3e a88f d0bd 7577 e1bc
000002d0: cc8e 9c3d 329d 463f ed1f 973d 7d6b 3bbe
000002e0: 0618 813f 4090 7fbd b9e7 18bd 00fd 913c
000002f0: 9dd1 223d 4ff0 12be 43bb 683d a032 06bf
00000300: 2dee 983e 3e13 cebd de6d 493b ae4f a3bd
00000310: 74bf 4fbd bfa5 2cbf 3007 f93c 4613 ffbe
00000320: f6f1 73bd 2bbe 21bd 1223 91bc 9351 093f
00000330: 56b9 173d 89e4 153e cd62 a33f 1700 a0bd
00000340: 9caf 25bd 9554 7dbf 2e0a a2bd 35fc 6bbe
00000350: 381c dcbe 9f31 1f3f eacf 093e 5517 883c
00000360: a16e 01be 632e e03d 8c43 82bb 5da8 8f3e
00000370: 2fe0 5cbd 8186 f73e dc75 c2bd a451 67bd
00000380: de98 02bd 0f95 b7bc ea01 703d f886 103e
00000390: 761f 03bd 3d26 26bd 95d1 9e3e df13 a1bc
000003a0: cf3a 253d 7c6f d43b f1a8 2d3f 4b86 fe3d
000003b0: 746a 91be 4ad9 3d3c e41f d63e 5118 b2bd
000003c0: bce8 4c3f f168 15c0 ac89 b73e 98a4 2a3e
000003d0: 89fe 0abe d056 9fbd 8a98 143f 7172 8bbd
000003e0: 6c44 00bf 034f 64bd b40e 1e3d 959d ea3b
000003f0: a653 cf3c f269 ec3d 766b a5bd 3e6a 45be
-0.044625163 0.08230955 -0.04162411 -0.10866546 -0.00549482 -0.069536805 0.07623906 0.05593303
-0.04361892 -0.030743921 0.026364265 -0.035398632 0.006086149 0.018013405 0.041149747 -0.028426656
0.016300395 0.054487944 -0.011975174 -0.012766472 -0.17395866 -0.08853136 0.07325514 -0.093826145
0.007829944 0.09839473 -0.023301937 -0.10147597 -0.1129552 -0.07535801 0.06946461 -0.082396105
0.04097802 -0.06565592 0.020664914 -0.014635103 -0.11771673 0.07685297 -0.075371124 -0.07408153
0.08054907 -0.07058628 0.04545001 -0.020544093 -0.072133206 -0.0027701969 -0.031488553 -0.051654544
-0.07106573 -0.08916966 0.021841748 -0.058728043 0.034118675 -0.013242374 -0.084390216 0.06140974
-0.09236247 -0.09332793 -0.0110677285 -0.09417255 -0.07999002 -0.15963678 -0.013534725 -0.0021717332
0.046806674 -0.056558017 0.005245126 -0.046155047 -0.012014498 -0.0066178534 -0.011671638 -0.06282295
0.014864021 -0.06712669 0.009593847 -0.038539004 0.010321132 -0.094494164 0.042053975 -0.019451452
-0.049215063 -0.08350619 -0.07113084 -0.083351485 0.061140694 -0.08709411 -0.09616852 -0.11582202
0.050149813 0.057020642 -0.10656752 -0.03982733 -0.018842593 -0.07127477 -0.013104974 0.024389675
-0.08652539 -0.065019645 0.024699613 -0.08543997 0.008457236 -0.09665037 -0.06226563 -0.06382444
-0.05597951 -0.122148305 0.023104677 -0.028595341 0.018636504 -0.07743104 -0.004783387 -0.08904882
0.041876584 0.08771255 0.0043538786 -0.05397831 -0.009211354 -0.06667528 0.07903254 -0.016399948
-0.1184358 -0.028757017 0.018957818 -0.006241739 0.036787428 -0.027159037 -0.05381666 -0.062043156
0.018624702 0.10496667 -0.6561688 -0.08998048 -0.05734336 0.01984968 0.059553787 0.054462615
-0.068311125 0.0519884 0.024127597 -0.6947355 0.0037471633 -0.635612 0.06602234 -0.06475204
0.0012286035 -0.09248376 0.43001232 0.030097129 -0.02589374 -0.044045385 -0.20427825 0.009556944
0.7007971 -0.5701693 -0.5031498 0.06454799 0.056799322 0.17559291 0.11122462 0.0066504967
0.17531753 -0.08057955 0.07195376 0.046893902 0.00016789793 -0.06345824 0.05769681 -0.12865746
-0.06934423 -0.6451448 -0.010174162 0.034181174 -8.57086e-07 -0.11677265 -0.008127989 -0.19221808
0.043816414 0.18482073 -0.1018365 -0.027522782 0.07644424 0.7758361 0.07379136 -0.18302722
1.0085456 -0.062393427 -0.037330363 0.017820835 0.039750684 -0.14349483 0.05681921 -0.52421
0.29869214 -0.10062264 0.0030735652 -0.07974182 -0.050719693 -0.6744041 0.030398935 -0.49819392
-0.059556924 -0.039488 -0.017716918 0.536401 0.037041984 0.1463796 1.2764527 -0.07812517
-0.040450677 -0.98957187 -0.07912098 -0.23045428 -0.4299028 0.6218509 0.13458219 0.016612688
-0.12639858 0.109463476 -0.0039753374 0.28058138 -0.053924736 0.48344806 -0.09495136 -0.056474343
-0.031884067 -0.022409944 0.058595575 0.14113986 -0.032012425 -0.04056381 0.31019273 -0.019662796
0.040339287 0.0064830165 0.6783591 0.12427958 -0.2840153 0.01158745 0.41821206 -0.08696044
0.80042624 -2.33453 0.35847223 0.1666435 -0.1357366 -0.0778023 0.58045256 -0.06808937
-0.50104403 -0.055739414 0.03858824 0.0071598985 0.025308441 0.11543645 -0.08077137 -0.1927881

bias f4 [64]
00000000: 07f0 09be 4a52 ae3b bb9e 41bd 1e98 093e
00000010: 4042 00bd 0350 a33d 4841 a03d 20e1 963d
00000020: a036 203d 730a 2dbe aec7 703d efbe 6dbb
00000030: 1eff 683c 7557 9bbd d9fb b63d be7a e43c
00000040: ae8f 553b 7e04 0ebe 9ec5 97bd 85dd c43d
00000050: 4397 303d cde4 a43d a413 673d 4e34 19bd
00000060: bf2f bd3c 8a32 09be d2dd ec3c 7665 d7bb
00000070: a9b8 573a 549b c93b 8f88 423d 6787 a8bd
00000080: ac77 38bd 0872 b0bc 444c ff3c 8620 9c3c
00000090: fda3 5fbd adbd a13d bea0 8c3c ff59 91bd
000000a0: 7b25 373d b087 c33d 35a8 123e 42bf c43d
000000b0: 7ddc e73b 5d7d ceba e7dc aa3c 8949 593c
000000c0: 7972 0abe 06b1 b63d 9f06 c63c 6365 47be
000000d0: 3fba 10bd 9065 23bd e5a3 15bd e44c afbb
000000e0: 8337 803c a53a ed3c 4be0 8cbd 5f70 9c3c
000000f0: 0d57 233c 7d5f 89ba 272c f13d 3d47 583d
-0.1347047 0.005319868 -0.047270518 0.13436934 -0.03131318 0.079742454 0.078249514 0.07367158
0.039114594 -0.16898517 0.05878418 -0.0036277135 0.014220981 -0.075850405 0.08934755 0.02789056
0.003258686 -0.13868901 -0.07410739 0.09612564 0.043113004 0.08051453 0.056415215 -0.037403397
0.023094056 -0.13398185 0.028914366 -0.0065733744 0.00082291156 0.0061525498 0.047493514 -0.08228951
-0.045036003 -0.02153875 0.031164296 0.019058477 -0.05459975 0.07897506 0.017166492 -0.070972435
0.04471348 0.09547365 0.14321978 0.09606792 0.007075845 -0.0015753914 0.020857288 0.013262161
-0.1352023 0.08920483 0.024173079 -0.1947227 -0.035333868 -0.03989178 -0.036533255 -0.0053497422
0.01565147 0.028958628 -0.06878718 0.019096551 0.009969485 -0.0010480728 0.117759995 0.052802313

weight f4 [1, 64]
00000000: 7068 8fbc 1a99 593f 577e c8be fd28 273e
00000010: 28cb c63c 72de 123c 3421 313e ae9b 02bf
00000020: 1876 0fbd 3c10 903f 1527 14bd ea44 1dbe
00000030: f690 29bb 5b71 823e 950f cc3d 0109 67bd
00000040: 4321 abbd 3dc3 07bd d301 133f d52e 923d
00000050: 5d47 c73b 513f fdbd 48c3 203d 01e6 16bc
00000060: 0c23 debc 5914 ae3e 4b2a 4cbe de71 04be
00000070: 9279 a13f 895f dc3c 9986 16be 7831 87bf
00000080: e9c8 313b a830 edbb d6a3 353d b229 753d
00000090: fdc1 1a3f e580 02bf a9b8 a03d dde0 9a3f
000000a0: ce2f a43d f7b7 8a3f b13f 283e 5301 e7bd
000000b0: 2123 963d 1891 a8bb 1873 b03e f6d2 843d
000000c0: 7003 1dbe 5f52 fe3d abdb 07bd 5a5f 34bf
000000d0: a088 e7bf d6c8 2cbc ca73 1d3f bbe0 d53b
000000e0: efe3 933f ab3f 2ebd b3d8 503f b53d 243e
000000f0: b0fa 9c3d 3d71 8dbd e552 d6be c1f0 243e
-0.017505854 0.8499924 -0.3915889 0.1632423 0.024266794 0.008964168 0.17297822 -0.510188
-0.035024732 1.1254954 -0.036170084 -0.1535832 -0.0025873757 0.25477108 0.099639095 -0.05640507
-0.083559535 -0.033145178 0.5742466 0.07137839 0.006081505 -0.12365592 0.039248735 -0.009210111
-0.027116321 0.339999 -0.19938008 -0.12934062 1.2615225 0.026901023 -0.14699782 -1.0561972
0.0027127808 -0.0072384663 0.0443457 0.059854217 0.6045225 -0.5097793 0.07847721 1.2099873
0.080169305 1.0837392 0.16430546 -0.112795494 0.07330919 -0.0051442496 0.3446281 0.0648555
-0.15333343 0.12418055 -0.033168476 -0.70457995 -1.808857 -0.01054593 0.61504805 0.006527034
1.1553935 -0.042541187 0.81580657 0.16039164 0.07665002 -0.06906364 -0.41860119 0.16107465
